…
NormalInit: mean=0, std=0.01, bias=0 

auxiliary_head.convs.0.conv.weight - torch.Size([256, 384, 3, 3]): 
The value is the same before and after calling `init_weights` of EncoderDecoder  

auxiliary_head.convs.0.bn.weight - torch.Size([256]): 
The value is the same before and after calling `init_weights` of EncoderDecoder  

auxiliary_head.convs.0.bn.bias - torch.Size([256]): 
The value is the same before and after calling `init_weights` of EncoderDecoder  
2022-06-21 10:58:32,726 - mmseg - INFO - EncoderDecoder(
  (backbone): ConvNeXt(
    (downsample_layers): ModuleList(
      (0): Sequential(
        (0): Conv2d(6, 96, kernel_size=(4, 4), stride=(4, 4))
        (1): LayerNorm2d((96,), eps=1e-06, elementwise_affine=True)
      )
      (1): Sequential(
        (0): LayerNorm2d((96,), eps=1e-05, elementwise_affine=True)
        (1): Conv2d(96, 192, kernel_size=(2, 2), stride=(2, 2))
      )
      (2): Sequential(
        (0): LayerNorm2d((192,), eps=1e-05, elementwise_affine=True)
        (1): Conv2d(192, 384, kernel_size=(2, 2), stride=(2, 2))
      )
      (3): Sequential(
        (0): LayerNorm2d((384,), eps=1e-05, elementwise_affine=True)
        (1): Conv2d(384, 768, kernel_size=(2, 2), stride=(2, 2))
      )
    )
    (stages): ModuleList(
      (0): Sequential(
        (0): ConvNeXtBlock(
          (depthwise_conv): Conv2d(96, 96, kernel_size=(7, 7), stride=(1, 1), padding=(3, 3), groups=96)
          (norm): LayerNorm2d((96,), eps=1e-06, elementwise_affine=True)
          (pointwise_conv1): Linear(in_features=96, out_features=384, bias=True)
          (act): GELU()
          (pointwise_conv2): Linear(in_features=384, out_features=96, bias=True)
          (drop_path): Identity()
        )
        (1): ConvNeXtBlock(
          (depthwise_conv): Conv2d(96, 96, kernel_size=(7, 7), stride=(1, 1), padding=(3, 3), groups=96)
          (norm): LayerNorm2d((96,), eps=1e-06, elementwise_affine=True)
          (pointwise_conv1): Linear(in_features=96, out_features=384, bias=True)
          (act): GELU()
          (pointwise_conv2): Linear(in_features=384, out_features=96, bias=True)
          (drop_path): DropPath()
        )
        (2): ConvNeXtBlock(
          (depthwise_conv): Conv2d(96, 96, kernel_size=(7, 7), stride=(1, 1), padding=(3, 3), groups=96)
          (norm): LayerNorm2d((96,), eps=1e-06, elementwise_affine=True)
          (pointwise_conv1): Linear(in_features=96, out_features=384, bias=True)
          (act): GELU()
          (pointwise_conv2): Linear(in_features=384, out_features=96, bias=True)
          (drop_path): DropPath()
        )
      )
      (1): Sequential(
        (0): ConvNeXtBlock(
          (depthwise_conv): Conv2d(192, 192, kernel_size=(7, 7), stride=(1, 1), padding=(3, 3), groups=192)
          (norm): LayerNorm2d((192,), eps=1e-06, elementwise_affine=True)
          (pointwise_conv1): Linear(in_features=192, out_features=768, bias=True)
          (act): GELU()
          (pointwise_conv2): Linear(in_features=768, out_features=192, bias=True)
          (drop_path): DropPath()
        )
        (1): ConvNeXtBlock(
          (depthwise_conv): Conv2d(192, 192, kernel_size=(7, 7), stride=(1, 1), padding=(3, 3), groups=192)
          (norm): LayerNorm2d((192,), eps=1e-06, elementwise_affine=True)
          (pointwise_conv1): Linear(in_features=192, out_features=768, bias=True)
          (act): GELU()
          (pointwise_conv2): Linear(in_features=768, out_features=192, bias=True)
          (drop_path): DropPath()
        )
        (2): ConvNeXtBlock(
          (depthwise_conv): Conv2d(192, 192, kernel_size=(7, 7), stride=(1, 1), padding=(3, 3), groups=192)
          (norm): LayerNorm2d((192,), eps=1e-06, elementwise_affine=True)
          (pointwise_conv1): Linear(in_features=192, out_features=768, bias=True)
          (act): GELU()
          (pointwise_conv2): Linear(in_features=768, out_features=192, bias=True)
          (drop_path): DropPath()
        )
      )
      (2): Sequential(
        (0): ConvNeXtBlock(
          (depthwise_conv): Conv2d(384, 384, kernel_size=(7, 7), stride=(1, 1), padding=(3, 3), groups=384)
          (norm): LayerNorm2d((384,), eps=1e-06, elementwise_affine=True)
          (pointwise_conv1): Linear(in_features=384, out_features=1536, bias=True)
          (act): GELU()
          (pointwise_conv2): Linear(in_features=1536, out_features=384, bias=True)
          (drop_path): DropPath()
        )
        (1): ConvNeXtBlock(
          (depthwise_conv): Conv2d(384, 384, kernel_size=(7, 7), stride=(1, 1), padding=(3, 3), groups=384)
          (norm): LayerNorm2d((384,), eps=1e-06, elementwise_affine=True)
          (pointwise_conv1): Linear(in_features=384, out_features=1536, bias=True)
          (act): GELU()
          (pointwise_conv2): Linear(in_features=1536, out_features=384, bias=True)
          (drop_path): DropPath()
        )
        (2): ConvNeXtBlock(
          (depthwise_conv): Conv2d(384, 384, kernel_size=(7, 7), stride=(1, 1), padding=(3, 3), groups=384)
          (norm): LayerNorm2d((384,), eps=1e-06, elementwise_affine=True)
          (pointwise_conv1): Linear(in_features=384, out_features=1536, bias=True)
          (act): GELU()
          (pointwise_conv2): Linear(in_features=1536, out_features=384, bias=True)
          (drop_path): DropPath()
        )
        (3): ConvNeXtBlock(
          (depthwise_conv): Conv2d(384, 384, kernel_size=(7, 7), stride=(1, 1), padding=(3, 3), groups=384)
          (norm): LayerNorm2d((384,), eps=1e-06, elementwise_affine=True)
          (pointwise_conv1): Linear(in_features=384, out_features=1536, bias=True)
          (act): GELU()
          (pointwise_conv2): Linear(in_features=1536, out_features=384, bias=True)
          (drop_path): DropPath()
        )
        (4): ConvNeXtBlock(
          (depthwise_conv): Conv2d(384, 384, kernel_size=(7, 7), stride=(1, 1), padding=(3, 3), groups=384)
          (norm): LayerNorm2d((384,), eps=1e-06, elementwise_affine=True)
          (pointwise_conv1): Linear(in_features=384, out_features=1536, bias=True)
          (act): GELU()
          (pointwise_conv2): Linear(in_features=1536, out_features=384, bias=True)
          (drop_path): DropPath()
        )
        (5): ConvNeXtBlock(
          (depthwise_conv): Conv2d(384, 384, kernel_size=(7, 7), stride=(1, 1), padding=(3, 3), groups=384)
          (norm): LayerNorm2d((384,), eps=1e-06, elementwise_affine=True)
          (pointwise_conv1): Linear(in_features=384, out_features=1536, bias=True)
          (act): GELU()
          (pointwise_conv2): Linear(in_features=1536, out_features=384, bias=True)
          (drop_path): DropPath()
        )
        (6): ConvNeXtBlock(
          (depthwise_conv): Conv2d(384, 384, kernel_size=(7, 7), stride=(1, 1), padding=(3, 3), groups=384)
          (norm): LayerNorm2d((384,), eps=1e-06, elementwise_affine=True)
          (pointwise_conv1): Linear(in_features=384, out_features=1536, bias=True)
          (act): GELU()
          (pointwise_conv2): Linear(in_features=1536, out_features=384, bias=True)
          (drop_path): DropPath()
        )
        (7): ConvNeXtBlock(
          (depthwise_conv): Conv2d(384, 384, kernel_size=(7, 7), stride=(1, 1), padding=(3, 3), groups=384)
          (norm): LayerNorm2d((384,), eps=1e-06, elementwise_affine=True)
          (pointwise_conv1): Linear(in_features=384, out_features=1536, bias=True)
          (act): GELU()
          (pointwise_conv2): Linear(in_features=1536, out_features=384, bias=True)
          (drop_path): DropPath()
        )
        (8): ConvNeXtBlock(
          (depthwise_conv): Conv2d(384, 384, kernel_size=(7, 7), stride=(1, 1), padding=(3, 3), groups=384)
          (norm): LayerNorm2d((384,), eps=1e-06, elementwise_affine=True)
          (pointwise_conv1): Linear(in_features=384, out_features=1536, bias=True)
          (act): GELU()
          (pointwise_conv2): Linear(in_features=1536, out_features=384, bias=True)
          (drop_path): DropPath()
        )
      )
      (3): Sequential(
        (0): ConvNeXtBlock(
          (depthwise_conv): Conv2d(768, 768, kernel_size=(7, 7), stride=(1, 1), padding=(3, 3), groups=768)
          (norm): LayerNorm2d((768,), eps=1e-06, elementwise_affine=True)
          (pointwise_conv1): Linear(in_features=768, out_features=3072, bias=True)
          (act): GELU()
          (pointwise_conv2): Linear(in_features=3072, out_features=768, bias=True)
          (drop_path): DropPath()
        )
        (1): ConvNeXtBlock(
          (depthwise_conv): Conv2d(768, 768, kernel_size=(7, 7), stride=(1, 1), padding=(3, 3), groups=768)
          (norm): LayerNorm2d((768,), eps=1e-06, elementwise_affine=True)
          (pointwise_conv1): Linear(in_features=768, out_features=3072, bias=True)
          (act): GELU()
          (pointwise_conv2): Linear(in_features=3072, out_features=768, bias=True)
          (drop_path): DropPath()
        )
        (2): ConvNeXtBlock(
          (depthwise_conv): Conv2d(768, 768, kernel_size=(7, 7), stride=(1, 1), padding=(3, 3), groups=768)
          (norm): LayerNorm2d((768,), eps=1e-06, elementwise_affine=True)
          (pointwise_conv1): Linear(in_features=768, out_features=3072, bias=True)
          (act): GELU()
          (pointwise_conv2): Linear(in_features=3072, out_features=768, bias=True)
          (drop_path): DropPath()
        )
      )
    )
    (norm0): LayerNorm2d((96,), eps=1e-06, elementwise_affine=True)
    (norm1): LayerNorm2d((192,), eps=1e-06, elementwise_affine=True)
    (norm2): LayerNorm2d((384,), eps=1e-06, elementwise_affine=True)
    (norm3): LayerNorm2d((768,), eps=1e-06, elementwise_affine=True)
  )
  (decode_head): UPerHead(
    input_transform=multiple_select, ignore_index=255, align_corners=False
    (loss_decode): CrossEntropyLoss(avg_non_ignore=False)
    (conv_seg): Conv2d(512, 8, kernel_size=(1, 1), stride=(1, 1))
    (dropout): Dropout2d(p=0.1, inplace=False)
    (psp_modules): PPM(
      (0): Sequential(
        (0): AdaptiveAvgPool2d(output_size=1)
        (1): ConvModule(
          (conv): Conv2d(768, 512, kernel_size=(1, 1), stride=(1, 1), bias=False)
          (bn): BatchNorm2d(512, eps=1e-05, momentum=0.1, affine=True, track_running_stats=True)
          (activate): ReLU(inplace=True)
        )
      )
      (1): Sequential(
        (0): AdaptiveAvgPool2d(output_size=2)
        (1): ConvModule(
          (conv): Conv2d(768, 512, kernel_size=(1, 1), stride=(1, 1), bias=False)
          (bn): BatchNorm2d(512, eps=1e-05, momentum=0.1, affine=True, track_running_stats=True)
          (activate): ReLU(inplace=True)
        )
      )
      (2): Sequential(
        (0): AdaptiveAvgPool2d(output_size=3)
        (1): ConvModule(
          (conv): Conv2d(768, 512, kernel_size=(1, 1), stride=(1, 1), bias=False)
          (bn): BatchNorm2d(512, eps=1e-05, momentum=0.1, affine=True, track_running_stats=True)
          (activate): ReLU(inplace=True)
        )
      )
      (3): Sequential(
        (0): AdaptiveAvgPool2d(output_size=6)
        (1): ConvModule(
          (conv): Conv2d(768, 512, kernel_size=(1, 1), stride=(1, 1), bias=False)
          (bn): BatchNorm2d(512, eps=1e-05, momentum=0.1, affine=True, track_running_stats=True)
          (activate): ReLU(inplace=True)
        )
      )
    )
    (bottleneck): ConvModule(
      (conv): Conv2d(2816, 512, kernel_size=(3, 3), stride=(1, 1), padding=(1, 1), bias=False)
      (bn): BatchNorm2d(512, eps=1e-05, momentum=0.1, affine=True, track_running_stats=True)
      (activate): ReLU(inplace=True)
    )
    (lateral_convs): ModuleList(
      (0): ConvModule(
        (conv): Conv2d(96, 512, kernel_size=(1, 1), stride=(1, 1), bias=False)
        (bn): BatchNorm2d(512, eps=1e-05, momentum=0.1, affine=True, track_running_stats=True)
        (activate): ReLU()
      )
      (1): ConvModule(
        (conv): Conv2d(192, 512, kernel_size=(1, 1), stride=(1, 1), bias=False)
        (bn): BatchNorm2d(512, eps=1e-05, momentum=0.1, affine=True, track_running_stats=True)
        (activate): ReLU()
      )
      (2): ConvModule(
        (conv): Conv2d(384, 512, kernel_size=(1, 1), stride=(1, 1), bias=False)
        (bn): BatchNorm2d(512, eps=1e-05, momentum=0.1, affine=True, track_running_stats=True)
        (activate): ReLU()
      )
    )
    (fpn_convs): ModuleList(
      (0): ConvModule(
        (conv): Conv2d(512, 512, kernel_size=(3, 3), stride=(1, 1), padding=(1, 1), bias=False)
        (bn): BatchNorm2d(512, eps=1e-05, momentum=0.1, affine=True, track_running_stats=True)
        (activate): ReLU()
      )
      (1): ConvModule(
        (conv): Conv2d(512, 512, kernel_size=(3, 3), stride=(1, 1), padding=(1, 1), bias=False)
        (bn): BatchNorm2d(512, eps=1e-05, momentum=0.1, affine=True, track_running_stats=True)
        (activate): ReLU()
      )
      (2): ConvModule(
        (conv): Conv2d(512, 512, kernel_size=(3, 3), stride=(1, 1), padding=(1, 1), bias=False)
        (bn): BatchNorm2d(512, eps=1e-05, momentum=0.1, affine=True, track_running_stats=True)
        (activate): ReLU()
      )
    )
    (fpn_bottleneck): ConvModule(
      (conv): Conv2d(2048, 512, kernel_size=(3, 3), stride=(1, 1), padding=(1, 1), bias=False)
      (bn): BatchNorm2d(512, eps=1e-05, momentum=0.1, affine=True, track_running_stats=True)
      (activate): ReLU(inplace=True)
    )
  )
  init_cfg={'type': 'Normal', 'std': 0.01, 'override': {'name': 'conv_seg'}}
  (auxiliary_head): FCNHead(
    input_transform=None, ignore_index=255, align_corners=False
    (loss_decode): CrossEntropyLoss(avg_non_ignore=False)
    (conv_seg): Conv2d(256, 8, kernel_size=(1, 1), stride=(1, 1))
    (dropout): Dropout2d(p=0.1, inplace=False)
    (convs): Sequential(
      (0): ConvModule(
        (conv): Conv2d(384, 256, kernel_size=(3, 3), stride=(1, 1), padding=(1, 1), bias=False)
        (bn): BatchNorm2d(256, eps=1e-05, momentum=0.1, affine=True, track_running_stats=True)
        (activate): ReLU(inplace=True)
      )
    )
  )
  init_cfg={'type': 'Normal', 'std': 0.01, 'override': {'name': 'conv_seg'}}
)
2022-06-21 10:58:32,730 - mmseg - INFO - Loaded 256 images
2022-06-21 10:58:34,516 - mmseg - INFO - self.paramwise_cfg is {'decay_rate': 0.9, 'decay_type': 'stage_wise', 'num_layers': 6}
2022-06-21 10:58:34,516 - mmseg - INFO - Build LearningRateDecayOptimizerConstructor  stage_wise 0.9 - 8
…
